models/dl_deception_model.pt (torch, 201881 bytes, 5 tensors)

net.0.weight f4 [256, 64]
00000000: 076d abbd 999d c03d 102b f9bd a807 df3c
00000010: 3ccf 9bbd ace6 da3d 808c 343b 0b53 2e3d
00000020: c8d2 013e 6ab6 d2bc 2f19 fe3d f019 69bc
00000030: 8087 1a3b b005 fd3d 949b 56bd 0c5c 9fbd
00000040: 4e0b c9bd 15f8 a23d 3cdf d63a f055 7abc
00000050: 5ac5 d2bd 55a6 cf3d 0121 ddbd 3115 ca3d
00000060: ac40 323d 24ec 22bd 80fd d93d 73d6 f5bd
00000070: b905 c13d 24d5 463d f4ac 71bd f029 fbbd
00000080: cee1 cfbd 008a edbb a826 a93d 0bf5 b93d
00000090: 3222 d5bc a55b 613d 75dc 6e3d bf35 e13d
000000a0: 0716 a4bd 3862 af3d 0c33 c53d 179d 903d
000000b0: 171c 4b3d 0c17 24bd b1b6 fabd a4c2 0dbc
000000c0: 8561 10bd 985a afbd 72f7 88bd 383e 1dbd
000000d0: 701d 463d 6f54 75bd 5cf0 993c a8b2 593d
000000e0: 2f8b b4bd 848b 67bc 18bf b33c 9acf 9fbd
000000f0: d08e 553d 04af eabd 9cff d9bd 28f0 e4bd
00000100: 0e6a d1bd 4570 01bd a8c8 98bd ea80 813d
00000110: 0887 6f3d 08c3 88bc 086d c2ba fc82 943d
00000120: 3adf 02be 6a85 053d f624 5bbd 3455 1abd
00000130: 708f 283c a254 b13d 200c e9bd ae5f a5bd
00000140: e047 3cbd 10ca ffbc 90e9 e6bd aabc e13d
00000150: 1822 1e3d 9416 c83d 3071 f6bd 45ba eb3c
00000160: 6e60 993d 8801 e63c f4fb 3e3d da83 90bd
00000170: f6f3 bdbd b0b1 ccbd 8ca9 5e3d 7d6b 77bd
00000180: a083 81bc e646 883d 8274 ab3d ed89 debb
00000190: a67d 0bbc 48ff 99bd e076 eabb 48c4 d0bc
000001a0: c024 28bc fae8 ae3d b031 56bc 2efe d1bd
000001b0: 9a36 263c c7e8 a23c a041 2bbc f5d6 da3c
000001c0: f0f5 e03d 2cc9 063d 205c 0fbd 5e33 bcbd
000001d0: a076 dc3b 808e 733c ece4 4c3d 6c3f 8fbc
000001e0: b60a 0bbc 3851 cebd ac58 813d 7c66 23bd
000001f0: 8c67 893d 0f5d e03c 5e1e 8f3b d4ee 8dbd
00000200: 9467 82bd 4031 313d ea2a e1bd 603b dabd
00000210: a0d3 ce3c 4091 80bd 0038 2d3b 802d d23c
00000220: 04da bbbd 367c bcbd 208d 9a3c 6cb2 e43d
00000230: 5433 c83d 30ab 38bc a05d 61bd 649c dfbd
00000240: cea1 f93d 818b 943d 48ec e83c d0ab c4bc
00000250: a885 6fbd b7d3 b63d 7bc6 ef3d 30e5 5fbd
00000260: 100c 65bd 00e1 8e3d d0d0 a6bd e01d ea3c
00000270: 6f9b a43d 78ee e93c 7872 d53c 36d9 c1bd
00000280: c8c3 903c d2ff d03d 6aa7 f33d e0ef 6f3d
00000290: c8fe d13c b8b6 dabc 5763 c33d c1b5 9b3d
000002a0: 28bc 473d e524 b9bc 6c1f a3bd f5a6 ed3d
000002b0: a6e3 c0bd a824 853c 03da 4cbc e490 693d
000002c0: 965c f9bd 90c9 f7bc 40d1 403c 40af 6dbd
000002d0: 7448 21bd 1bd7 f1bd 7d79 6f3c f4ff 49bd
000002e0: dcf9 f5bd 6ec6 cfbd 6ca4 193d eaf9 ef3d
000002f0: 0488 113d c2ef b93d 2057 a0bc e693 e03d
00000300: 7bf0 46bd 8924 2e3d da0b 693d b34e d63a
00000310: 5aca 593d 9629 babc da93 5f3d 7c4d 9e3d
00000320: 090b 053d 854c e53b 9e22 c13d 957c ac3d
00000330: 3bb3 dd3d a23c d9bd 28f3 c8bd b92d 27bc
00000340: 3470 d93d d68f 863d 56de a63d c3c0 ccbd
00000350: 0a31 0ebd 22bb a63d 3bb6 18bd f5cc 1f3d
00000360: 1e66 2ebb 8a4b 123d 2739 b53d 4c9a df3d
00000370: b636 c2bd 0659 73bd da54 523d 97fd da3d
00000380: 27cd d73d a30c ee3d 3a1d 03bd 469f a3bc
00000390: 9d61 00bc b563 623d 081d a13d fcc2 a23c
000003a0: 8e77 93bd 18ac f7bd 6959 403c 0424 9a3c
000003b0: f78c 20bd 56a9 283d a463 c23d b5a3 323d
000003c0: db67 17bd 13ff e93d 645b babc 0041 de3d
000003d0: 14f7 b1bd 03a9 2ebd 5a34 ef3d 508c 6a3d
000003e0: 5d7e 70bc 0288 cf3c 4047 88bd 9813 e6bd
000003f0: b64b 1ebd 36bc 6dbd 8c94 ba3d 3acb 793d
-0.08370405 0.09405059 -0.12166417 0.02722533 -0.07607886 0.106885284 0.0027549565 0.042559665
0.12678063 -0.025721747 0.12407147 -0.014227375 0.00235793 0.123546004 -0.052394465 -0.077812284
-0.09816609 0.07957474 0.0016393433 -0.015279278 -0.10291548 0.10139147 -0.107973106 0.09867323
0.043518707 -0.039775982 0.106440544 -0.120037936 0.0942492 0.04854311 -0.05900283 -0.12263858
-0.10150491 -0.007249117 0.08259326 0.09079941 -0.026017282 0.05501904 0.058315713 0.109965794
-0.08012014 0.085636556 0.09628877 0.070612125 0.049587335 -0.04006104 -0.12241877 -0.008652363
-0.035249252 -0.08562201 -0.066878214 -0.038389415 0.048367918 -0.059894975 0.01879137 0.053148896
-0.0881561 -0.014132384 0.021941707 -0.07803269 0.05213815 -0.11459163 -0.10644457 -0.11178619
-0.102253065 -0.03160121 -0.07460147 0.063234165 0.058478385 -0.01669456 -0.0014833519 0.07251546
-0.12780467 0.032597937 -0.053502046 -0.037678912 0.010288104 0.086587206 -0.11379266 -0.0807489
-0.045966983 -0.03122428 -0.11275017 0.11022313 0.038606733 0.097699314 -0.120333076 0.028775344
0.07489096 0.028076902 0.046627 -0.07056399 -0.092750475 -0.09994829 0.05436091 -0.060405243
-0.015809834 0.06654148 0.083718315 -0.0067913444 -0.008513844 -0.07519394 -0.0071552843 -0.02548422
-0.010262668 0.085405305 -0.01307337 -0.10253559 0.010144854 0.019886388 -0.010452658 0.026713828
0.10984409 0.032906696 -0.034999967 -0.09189485 0.0067280084 0.014865518 0.050023004 -0.017486297
-0.00848644 -0.10074085 0.06315741 -0.03989266 0.06709203 0.027388124 0.0043676337 -0.069303185
-0.06367412 0.04325986 -0.10994513 -0.10655856 0.025247395 -0.06277704 0.0026431084 0.025656462
-0.091724426 -0.09203379 0.018866122 0.11166844 0.09775415 -0.011271283 -0.05502093 -0.10918501
0.12189065 0.07253171 0.02843298 -0.024007708 -0.058477074 0.089271 0.11707779 -0.05466193
-0.055919707 0.06976509 -0.081452966 0.028578699 0.08037459 0.028556094 0.02605556 -0.09465258
0.01767148 0.10205044 0.11897166 0.058578372 0.025634184 -0.026698455 0.09540432 0.07603026
0.048763424 -0.0226006 -0.079649776 0.1160411 -0.094184205 0.01625283 -0.01250315 0.057022944
-0.121758625 -0.03024748 0.011768639 -0.05802846 -0.039375737 -0.11808606 0.014616367 -0.04931636
-0.120105475 -0.10145269 0.03751032 0.11717589 0.035530105 0.09078933 -0.019572794 0.109657094
-0.048569184 0.04251531 0.05689607 0.0016350358 0.053171493 -0.022724908 0.05458436 0.07729623
0.032481227 0.006997647 0.09430431 0.084222 0.10825201 -0.10607268 -0.098120034 -0.010203772
0.10617104 0.06570403 0.08147876 -0.09997704 -0.034714736 0.081411615 -0.037283164 0.03901382
-0.002661116 0.03571657 0.088487916 0.10918102 -0.094830915 -0.05941107 0.051350452 0.106929
0.105371766 0.11623504 -0.032010294 -0.019973408 -0.007835773 0.05527087 0.078668654 0.019868366
-0.072005376 -0.12093371 0.011740067 0.018816002 -0.039196935 0.041177116 0.09491661 0.043613154
-0.03696428 0.11425605 -0.022748657 0.108522415 -0.086897045 -0.04264165 0.11679907 0.05726272
-0.014678565 0.025333408 -0.06654215 -0.11234206 -0.038646422 -0.05804082 0.09110364 0.060984828

net.0.bias f4 [256]
00000000: df56 22bd 6b52 193d b5df 8dbd 7725 843d
00000010: f990 2ebd a378 643d fe8b d4bd 2410 b4bd
00000020: e421 463d 0c53 52bd 04d8 ca3c dcd6 983d
00000030: cb3b b0bd 2d8b cdbd 612e cb3d bad2 aabc
00000040: 14ee f2bd 58f2 8c3d 9ab3 edbd 31a4 033d
00000050: 88cc dabd eeb0 003e 89b0 de3c 5a1d 32bd
00000060: 967c dd3d 8e34 c13d 2273 35bd d36b 20bc
00000070: 3f95 e6bd 8956 333d a423 a7bd a7bf 79bc
00000080: 5eb0 cdbd 1589 ff3c 5a34 b23d 220c 333d
00000090: 3027 4abd 5e3f 95bd 0aaa 033c 3762 443d
000000a0: 1e58 5339 8ca0 e43d b80d dcbd c00e d13c
000000b0: 23d6 9ebc 3035 653d fce2 8ebd 5480 903d
000000c0: 1dfa 8b3b f0ab 9f3c f1cd 35bc 5eab 403d
000000d0: bedc d73d f996 ea3d 252e be3d 9eb7 ae3d
000000e0: f4d6 563d 7746 933d eb2d 6d3d 00e8 cebd
000000f0: d958 003e de29 893c 460f f4bd 98f7 873d
00000100: 2fda 253d 0630 843d ffbd ff3c be23 a33b
00000110: 659c be3d 488f 8bbd f81e b7bd 7da8 ac3c
00000120: c83b b93d ae27 693d 5673 b6bd 7c01 e13d
00000130: 8dcb f33d 1a2f d5bd 6ad1 223c 1798 a9bd
00000140: 7000 bd3d 4025 c53d 14f3 91bd 4202 99bd
00000150: 89b9 b13c 1a04 df3c 2804 a1bd 6eef ae3d
00000160: 74de 81bd 8cbd 75bd 1cac d73d 252b 09bd
00000170: c097 353a 5abb f63d 4860 463c f5c8 02bd
00000180: 7c1f 0ebd c4f1 e93d 4740 83bb c176 f93d
00000190: eb8d 63bc 98c8 1dbd f4c8 c3bd 3c1e 6abd
000001a0: aae8 aa3c 9f3c 76bd c225 61bd 74f9 563d
000001b0: e943 c5bd 4621 abbd e28f a7bd d138 a13d
000001c0: 2fcc 64bb d8c4 323c 08fe 463d 507f fd3d
000001d0: c598 a53d 2001 6bbd d6df ec39 a820 febc
000001e0: 22c0 833c 6b1c 893d c542 f03d 30e8 c33d
000001f0: f9e4 0abd 0ace d7bc ab3d 30bd ebcb adbd
00000200: fe9b e7bd c467 f9bd fe8e 6abd 8c3d ed3d
00000210: 76c4 e73d 9e11 ebbd 8dab aa3d 8451 b8bd
00000220: 6329 d8bb 3ab1 1bbd 962e 8f3d ff1a 0fbd
00000230: 6bd6 4e3d 0ccf 783d 14f4 f2bd 5e2b 923d
00000240: c721 853c d69c 553d bb65 fbbc bd27 ee3d
00000250: bcc3 b6bd 3272 f23d a052 47bc 16f3 b5bd
00000260: 9c1f a0bd 3a1f 033d d4bd e93d b3e1 edbd
00000270: 565a 543d 69ae d33d 00eb 973b 5fa1 c23d
00000280: 9fce 9bbd 7099 32bd 4c96 cf3d 9a7e 053d
00000290: b8ce 823d a443 a23d c02c 32bd 3096 13bd
000002a0: 16bb f3bd 6348 eb3d b70c 773d 109d 45bd
000002b0: 746d d8bd 4315 8a3c 38db da3d d32f 943d
000002c0: aa1b 3b3d 88e7 c7bc d26b d0ba edb2 473b
000002d0: 48a6 d6bc f830 f43c 0d4f d43c 4075 38bc
000002e0: 75c9 5b3d eef2 aebd fe76 fe3d 0c69 47bd
000002f0: 3edb 83bd c1c8 84bc 1c9d e13d ab4d 053d
00000300: 4df4 8d3d 8c5c 483d 99f3 073d 6fa1 a93c
00000310: 68d5 f8bd 0b63 d7bd 6f52 3c3d a878 9d38
00000320: 7864 2fbd ec7e d9bd c152 273c e3c1 503d
00000330: 1aed 983d 82d5 99bc 552b 6d3d 26a7 8cbd
00000340: 6c3d 77bd 0f27 913d d369 3abd 6859 c13a
00000350: b8af efbd 4c05 50bd 1693 a03c e6b7 dd3c
00000360: f9c0 afbc b689 79bd 508a e33c 3683 f13d
00000370: a538 50bd 164c 053d e0c3 ffbd b8a7 50bb
00000380: 88b4 40bd da68 4e3d 53c1 f63d 0db7 cabc
00000390: dfef 913c de4a 413d 1db5 7fbd 6227 84bd
000003a0: 2cf5 c2bd 2e37 37bc 3955 c33d c89d 8bbc
000003b0: f04d d63d 218c 443c 46e7 863c 30d6 f8bc
000003c0: 46dd f73c 86a5 efbd bfce 38bd e83d edbd
000003d0: 44ae 99bd e2b5 58bc 98de 113b a702 af3d
000003e0: 9256 a4bc e015 b6bc 163c 993d 2a2b ee3c
000003f0: 08de 563d bb10 f53c a95b 3dbd b623 fa3d
-0.039633628 0.037432116 -0.06927434 0.06452458 -0.042618725 0.05577911 -0.10378264 -0.08792141
0.048372164 -0.05134873 0.024761207 0.07462856 -0.086051546 -0.10036311 0.099209554 -0.020852435
-0.11861816 0.06882161 -0.11606522 0.032139007 -0.106835425 0.12567493 0.027183788 -0.043485023
0.108147785 0.09433852 -0.044299252 -0.009791332 -0.11258935 0.0437837 -0.08161095 -0.015243447
-0.10043405 0.031193295 0.087013915 0.043712743 -0.04935378 -0.07287477 0.008036146 0.047945227
0.00020155354 0.111634344 -0.10744804 0.025519729 -0.019389218 0.055958927 -0.069768876 0.07055727
0.004271759 0.019491166 -0.011096464 0.04703843 0.1054015 0.11454577 0.09286145 0.08531116
0.05245109 0.071911745 0.05790512 -0.10102844 0.12533893 0.016743597 -0.11916976 0.06639022
0.04049128 0.06454472 0.031218527 0.004978626 0.09307174 -0.06814438 -0.08941454 0.021076435
0.090446055 0.056922607 -0.08908717 0.10986611 0.119040586 -0.104093745 0.0099376235 -0.08280962
0.09228599 0.096262455 -0.071264416 -0.07471134 0.021694915 0.027223635 -0.07862121 0.08541761
-0.06341258 -0.05999522 0.10530874 -0.03348841 0.00069272146 0.12047453 0.012107916 -0.03192993
-0.034697995 0.11423066 -0.004005465 0.12180854 -0.013888816 -0.03852138 -0.09559813 -0.05715774
0.020862896 -0.060116407 -0.05496765 0.05248399 -0.096320935 -0.08355956 -0.0818174 0.07872165
-0.0034911742 0.010911189 0.048582107 0.123777986 0.08085779 -0.05737412 0.00045180199 -0.031021431
0.016082827 0.066948734 0.11731485 0.095657706 -0.03390977 -0.026343364 -0.04302756 -0.0848616
-0.1130905 -0.12177995 -0.057265274 0.11584005 0.11316769 -0.114779696 0.08333502 -0.08999923
-0.0065967306 -0.038010813 0.069913074 -0.034937855 0.050497454 0.06074433 -0.118629605 0.07137178
0.016251458 0.052151524 -0.030688157 0.11628673 -0.08924052 0.11838187 -0.012165695 -0.088842556
-0.07818529 0.0320122 0.1141316 -0.11615314 0.051843964 0.103360005 0.0046361685 0.09503435
-0.07607769 -0.04360336 0.10136089 0.03259144 0.06387085 0.07923058 -0.04349971 -0.0360319
-0.11900918 0.11488416 0.06031486 -0.04824549 -0.105677515 0.016855842 0.10686344 0.07235684
0.04568068 -0.024402395 -0.0015901274 0.0030471638 -0.026202336 0.029808506 0.0259166 -0.011258423
0.05365892 -0.08542429 0.1242504 -0.048684165 -0.064383015 -0.016209008 0.11016294 0.032544773
0.06931362 0.048916385 0.033191297 0.02070686 -0.12150079 -0.10516938 0.045977052 7.508817e-05
-0.042820424 -0.106199116 0.010212601 0.050966155 0.074670985 -0.018778566 0.057902653 -0.068678185
-0.06036131 0.07087528 -0.045511078 0.0014751377 -0.117034376 -0.0507863 0.019601386 0.027065229
-0.021454321 -0.060922347 0.027775913 0.117926046 -0.05083527 0.032543264 -0.12488532 -0.003183825
-0.047047168 0.050392963 0.120485924 -0.024745489 0.017814575 0.04719054 -0.062428582 -0.06452824
-0.09519419 -0.011182589 0.09537739 -0.01704301 0.10464084 0.0119963 0.016467702 -0.03037557
0.030256879 -0.11701493 -0.045119043 -0.11584073 -0.07503942 -0.013226958 0.002225792 0.08545428
-0.020060811 -0.022227228 0.074821636 0.029073317 0.05245784 0.029915204 -0.046229992 0.122138426

net.3.weight f4 [128, 256]
00000000: e106 be3c 7fe8 12bd 2820 81bc 9525 2c3d
00000010: 00e6 a8ba a3eb 5ebd 18b4 78bc 2404 3abd
00000020: 740c 2ebc 330e 86bc b896 2d3d e16b 5fbd
00000030: a035 6c3c e9a7 3cbd be31 2cbd 14d0 353d
00000040: 6065 353b 6fc6 6f3d e02a fcbb 1a32 1dbd
00000050: b236 2a3d 51c9 913b ab04 a03c 3624 74bd
00000060: 55c4 e3ba a50c d73c d02d c93b e0dd 0bbd
00000070: ac68 e63c 0b38 43bd 0e21 423d b46b c1bc
00000080: b255 273d c936 c5bc f6ce 7abc 304b 343d
00000090: 9c4e bf3c e031 503b 983c 713c f2d0 54bc
000000a0: 3096 b7bc d171 af3c a463 763d 35f5 03bc
000000b0: 58a3 d43c 1e28 283d bbda f7bc 91b2 d53c
000000c0: 4607 273d 30c7 66bc 48fa 963c babb 263d
000000d0: f1d5 b0bc ea3f 0b3b 654b dabc 9e1a 2cbd
000000e0: 59c7 9a3b 5143 853c d031 fcbb 743c df3c
000000f0: e5a4 08bd f120 a7bc 3acc 6b3d 8de6 003c
00000100: 529d 79bd f32c a73c 54d9 c83c d828 01bc
00000110: f57a 623d c4ca 5b3d fc85 2a3d f4da 1fbd
00000120: a411 303d f802 d73c 3ce4 113d 1866 7bbd
00000130: e1d9 6dbd 8467 c1bc 9909 3cbd 8848 043d
00000140: 1f32 03bd 069c 6b3d b87c 5b3c 0051 ae3c
00000150: 587e 51bc 7cec 6fbd 2865 b93c ea36 8a3b
00000160: 6cf4 563d b43d b23c f2be a7bb 4878 68bc
00000170: 9c17 aebc a000 3ebd f16e 0abc 4bda 16bc
00000180: 0e3f 13bd aa21 183d 46c5 03bd b390 41bd
00000190: 4caa 4e3d 0c0d a53c b844 0b3d 7a49 26bd
000001a0: 1d06 bdbc 040c 18bd 7791 f13c 0246 303d
000001b0: 247a babc 883f 283c de59 42bd 08fe 5a3d
000001c0: ecac 40bc 128b 1bbd 5c86 3d3d a0a2 d33c
000001d0: 0058 53bc 7cc6 a73c 709f a03c cc56 733d
000001e0: d463 45bd bc9f 3abb e211 7dbd ce57 6abd
000001f0: 1835 8c3c cb59 f33c 48b5 b23c a056 e4bb
00000200: fe81 6cbd 5808 a0bc 4a73 08bd 53b7 06bd
00000210: 219a f5bc 187c 8a3c 905a 0c3d 64ab a73c
00000220: 8efc 003d 1d8d 85bc 1430 bdbc 1c44 a6bc
00000230: 2841 773c 5c2e e1bc b0d1 25bc d435 813c
00000240: fcf6 0cbd 3888 143d 9ac7 5bbd 45f8 abbc
00000250: 66cc 6dbd bc84 b23c 8ca2 053d c0ec 353d
00000260: 9287 36bd 823e 6d3d ad5e 5bbc 84bb 413d
00000270: 5d2d d43c 73c5 223d 8acf 2dbd 07fe 8cbc
00000280: 9097 323c 1288 1bbd c098 0cbd 2f2b 7cbd
00000290: e1eb 163d 2adc 4dbd 1087 cd3b 3c98 903c
000002a0: 2634 65bd e552 c93a dc92 44bd 3ae1 473b
000002b0: 0289 1d3d 52ab 283d 42e0 64bd cc98 1e3c
000002c0: 9618 37bd be94 49bd 1e4d 623d 7478 af3c
000002d0: 8e77 3abd 8027 5fbb a8ea 2bbd 7c32 7dbd
000002e0: 9fcd 263d c6bb 26bd a83c 1e3c 5c6e b03c
000002f0: 681f 12bc 73c0 053c e048 6a3d 0a13 733d
00000300: eb45 263d c44d e4bc 3d9f 833c 7ce6 7abd
00000310: fc28 cbbc bd2e 9c3c 1dd0 80bd 324d 13bd
00000320: 31cc 00bd d0e4 3ebd 0cdf aebb 0459 04bc
00000330: 2067 773b c833 5fbd c76b 49bd 5c81 73bd
00000340: 147f 96bc 8805 983c 481d 3a3d 6405 a63c
00000350: 3e51 2f3d e4e0 b03c 7445 b73c f854 573d
00000360: eade f0bc 1c73 1bbd 32fe 123d 2a95 c93c
00000370: 422e 17bd 98f2 2b3d 58c5 b5bc f6b6 883c
00000380: e016 d7bc 4076 623b b05a ce3c 00f2 0bbc
00000390: c09b 5a3c cc8d 37bd f405 d83c 1e5e b9bc
000003a0: c464 9a3c 081f 72bc 063e 613d a822 423d
000003b0: e7bb 87bc 641b 86bc df94 4d3d f2ab 1e3d
000003c0: ace7 2fbd 0a20 743d 1085 adbb 9669 223d
000003d0: ea13 713d 2ae6 0ebd 0c67 16bd d639 70bc
000003e0: 5544 f9bc 3ce5 0fbd 0499 6a3d 8af8 2d3d
000003f0: 1405 0fbd d0eb 5bbd 569a 4c3d c907 7dbd
0.02319664 -0.035866257 -0.015762404 0.04202803 -0.0012885928 -0.05442394 -0.015179656 -0.045414105
-0.010623086 -0.016364193 0.042380065 -0.05454624 0.014417082 -0.04605857 -0.042039625 0.044387892
0.0027678832 0.05853885 -0.007695541 -0.03837786 0.041556068 0.0044490476 0.019533476 -0.059604846
-0.0017377237 0.026251147 0.0061394945 -0.034147143 0.028126083 -0.04766087 0.047394805 -0.023610927
0.04085321 -0.024073975 -0.015308132 0.044017017 0.023352914 0.003176801 0.014723919 -0.01298927
-0.022410482 0.021416577 0.06015362 -0.008054067 0.025956795 0.041053884 -0.030255666 0.026086124
0.04077842 -0.014085576 0.01842989 0.040706374 -0.02158639 0.0021247813 -0.026647279 -0.04201757
0.004723471 0.01626745 -0.007696368 0.027250506 -0.03336038 -0.02040145 0.057567813 0.007867468
-0.060941048 0.020407176 0.024517693 -0.007883273 0.055293042 0.05366017 0.041631684 -0.03902717
0.042985573 0.026246533 0.035618052 -0.06137666 -0.058069114 -0.02360893 -0.04590759 0.032295734
-0.03203022 0.057521842 0.0133964345 0.021278858 -0.01278647 -0.05857514 0.022631243 0.004217972
0.052479193 0.021757938 -0.005119198 -0.014188834 -0.021251492 -0.046387315 -0.008449302 -0.009207319
-0.035948806 0.03714148 -0.032170556 -0.047257137 0.050455377 0.020147823 0.034001082 -0.040597416
-0.023074204 -0.037120834 0.029488308 0.043035515 -0.02276332 0.010269053 -0.047448985 0.05346492
-0.011759978 -0.037974425 0.046270713 0.025834382 -0.012899399 0.020480387 0.019607276 0.059408948
-0.048190907 -0.0028476557 -0.061784633 -0.057212643 0.01711516 0.029705903 0.021814957 -0.0069683343
-0.057741158 -0.019535229 -0.033313073 -0.032889675 -0.029980721 0.016904876 0.034266055 0.020467468
0.031490855 -0.01630264 -0.023094214 -0.020296149 0.015091218 -0.027487926 -0.010120794 0.015772738
-0.03441523 0.03626272 -0.05365715 -0.020992408 -0.058056258 0.021791808 0.03262572 0.044415236
-0.044562884 0.05792094 -0.013389272 0.04729797 0.025900537 0.039739083 -0.042434253 -0.017210973
0.010900393 -0.037971564 -0.03432536 -0.06156462 0.036846045 -0.050258793 0.006272204 0.017650716
-0.055957936 0.0015359788 -0.04799162 0.0030499236 0.03846074 0.04117901 -0.05587793 0.009679984
-0.04470118 -0.049214117 0.055249326 0.021419741 -0.045524172 -0.0034050643 -0.041971833 -0.061815724
0.04072344 -0.04070642 0.009658016 0.021536998 -0.008918621 0.008163559 0.057198405 0.05934433
0.040594023 -0.027869113 0.016067142 -0.061254963 -0.024799816 0.019065255 -0.062896945 -0.03596229
-0.031444732 -0.04660493 -0.005336648 -0.008077864 0.0037750676 -0.05449274 -0.04917505 -0.05944954
-0.018371142 0.018557325 0.04543808 0.020266242 0.042802088 0.021591611 0.022371985 0.052571267
-0.029403169 -0.037951574 0.03588695 0.02460726 -0.03690935 0.041979402 -0.022188827 0.016688805
-0.026256025 0.0034555346 0.025189728 -0.008541584 0.013342798 -0.044812962 0.026370026 -0.022627886
0.018846877 -0.014777906 0.05499079 0.047396332 -0.016569091 -0.016370483 0.050190803 0.0387382
-0.04294555 0.059600867 -0.0052954033 0.039651476 0.058856882 -0.03488747 -0.036719367 -0.014662227
-0.030428091 -0.035130724 0.057274833 0.042473353 -0.034916952 -0.053691685 0.049951874 -0.061775003

net.3.bias f4 [128]
00000000: d8df 193d c94e 23bd c751 babc 279e d1bc
00000010: cf7c 70bd e2c5 a1bc f374 0f3c 1851 2bbd
00000020: 1526 513d 8629 e1bb 2028 803c 64f5 44bd
00000030: bc34 073d 4710 553d 5a62 333d 1265 123a
00000040: 8115 a5bc dcbb 8abc 0874 e3bc eb9f 6fbd
00000050: 6c16 d0bc 7625 33bd feee 713b 930f 1fbd
00000060: 649e 7cbd 97dd 273d dc87 1dbd d374 a83c
00000070: 9c83 86bc 03ab ae3b c473 dc3c 0483 1abd
00000080: 1420 99bc c476 0ebc 7a90 663c 1170 6a3d
00000090: a0c6 663d 74e5 ac3a ffd1 e2bc 1abe 11bd
000000a0: 14dc 78bc 1a96 ecbc ce05 08bd 26c2 e1bc
000000b0: 289e d1bc a3db cdbc 5c33 05bb 8d53 4a3d
000000c0: b382 d4bc 5db9 1b3c b54c 7d3d bcc0 d5bc
000000d0: 6b68 7a3c 2ead 63bd a22a 3b3c 895c 823d
000000e0: a9a4 a93c 5bce 213c 709b 283d c668 6d3c
000000f0: 495d 533d 1e04 adbc 7004 3dbd cee1 0bbd
00000100: 8be3 e43c 7e63 72bd 8a3c a03c 56d3 743d
00000110: 4ce7 5c3d 517d 7ebd 41f6 0bbc 9be7 b53c
00000120: 3416 75bb 6dd9 96bc 89c4 203d 3ee5 64bd
00000130: da16 3d3c 62bc 9e3c b54b e33c 8c37 5f3d
00000140: 03c1 e73c 8c76 4bbd b78c 1d3d a00e 89bc
00000150: c54c 9abc 3e8b 9dbb 5990 0d3d 0906 b9bc
00000160: 1481 2b3d 78ab 173c bc63 5dbd 2abc d5bc
00000170: a2cf 413d f449 fb3c f8f9 383d e82f 3b3a
00000180: 73eb c6bb 244b 2fbd e072 893b 8c02 81bd
00000190: 9155 fabc 019f b33c 234e 77bd 8315 103c
000001a0: 79fa ebba 1920 503b a2e4 9db9 ec7f 833d
000001b0: e44c bc3a d600 5e3d 822f 733d 8dd1 043b
000001c0: e69a 893c ecae a0bc aa7b d73c d862 583d
000001d0: 81ce 293d 4193 9c3c 9d0e bc3c a05e 603c
000001e0: 7c10 493d 204d e53c 038b a03c 0613 af3c
000001f0: b640 7c3d 8ea9 563d cde6 c73b 20be f1bb
0.03756699 -0.039870057 -0.022744073 -0.025588108 -0.058712777 -0.019747678 0.00875591 -0.041825384
0.05106171 -0.006871405 0.015644133 -0.048085585 0.033009276 0.052017476 0.043794967 0.00055845187
-0.020151855 -0.016935281 -0.027765289 -0.05850212 -0.025401317 -0.043736897 0.0036916132 -0.038833212
-0.06167449 0.04098281 -0.038459644 0.020563519 -0.016420178 0.005330445 0.02691067 -0.037722602
-0.018692054 -0.008695308 0.014072532 0.05723578 0.056341767 0.0013190941 -0.027688025 -0.035581686
-0.015189189 -0.028880168 -0.03320866 -0.027558398 -0.02558811 -0.025129145 -0.0020324802 0.049396086
-0.025941228 0.009504643 0.06184073 -0.02609288 0.015283684 -0.05558508 0.011423739 0.06365306
0.020708399 0.009875859 0.04116386 0.014490312 0.051602636 -0.021120127 -0.04614681 -0.03415089
0.027940532 -0.059176914 0.019560117 0.05977186 0.05393152 -0.06213123 -0.008542598 0.022205165
-0.0037397267 -0.018414224 0.03924993 -0.055882685 0.011541093 0.019376937 0.02774606 0.054496333
0.028290277 -0.049673602 0.038464274 -0.016730607 -0.018835435 -0.0048078587 0.03456149 -0.022585886
0.041871145 0.00925719 -0.054050192 -0.0260907 0.047317155 0.030674912 0.045160264 0.00071406225
-0.006070548 -0.04279627 0.0041946024 -0.06299314 -0.03055838 0.021926405 -0.06037725 0.008794191
-0.0018003724 0.0031757413 -0.00030115718 0.064208835 0.0014366177 0.054200016 0.05937148 0.0020266504
0.016797494 -0.01961466 0.026304085 0.05282864 0.041456703 0.019113185 0.022956187 0.013694435
0.049087986 0.027990878 0.019597536 0.021371376 0.06158515 0.052407794 0.0061005116 -0.007377401

net.6.weight f4 [1, 128]
00000000: c6d2 403d 6f54 43bd 4afa 903d a1f7 ab3d
00000010: 09ad 27bc 11a4 a13d ebb1 4f3c c808 fabb
00000020: a842 b3bc 8691 89bd f229 263d 79b0 833d
00000030: 7af9 9b3d 0b8f 3dbd 663b 713d 859e 913d
00000040: ec6a 2abd 307e acbd 540a 9d3c e927 a3bb
00000050: 64c6 0a3d 9431 83bc 0b68 dabc abb3 6b3b
00000060: 2cf6 52bc f5a2 b7bc 3ef5 90bd c911 b3bc
00000070: 6c72 9b3c badd 073d 424d c1bc 44d7 d0bc
00000080: e60b 273d 7395 c83c ce0e 3cbb 6e48 adbc
00000090: 414a b0bc a995 97bd e564 60bd 7eb0 bcbc
000000a0: 4e8d e2bc 010c 86bd 230d 843d c1ef a23c
000000b0: 4353 9a3d 1d82 803d e25c bd3c 5516 913c
000000c0: 399c 60bd 42ad 1c3d fb99 ab3d a074 4ebd
000000d0: e10a 6b3c 8d33 e63c 5d3f 8a3c 5069 b83d
000000e0: a088 f5bb d3cd 633d a99b 07bd 9da9 abbd
000000f0: d5c6 9cbd f6ab 963d 864d 3f3d 6334 0f3d
00000100: 1274 643c b26c 513d e9b4 94bd a452 20ba
00000110: 9643 0c3c 7bdb 6e3d 60e6 b3bc 2311 99ba
00000120: fe87 833d a5ed 14bd 7e65 5bbd 545b 6b3c
00000130: f86e afbd 1adb 853d aac0 9b3c 65e5 8d3d
00000140: f1d4 9abd b7a7 5abd 6309 8ebb d426 fb3c
00000150: 72a0 493d c6b0 aa3c 800f ff3c 0729 ee3c
00000160: 2984 0f3d 672b 8fbd 25f2 73bd 5804 3ebd
00000170: 0fc5 743d 9645 9b3c 5baf 863d 3b73 653b
00000180: 1a48 753d 40fc a9bd 00ba efbb a1e7 0fbd
00000190: e09f fcbb f72a 9d3b 5fd1 62bd f8e3 0b3d
000001a0: 6890 693c 049f 7c3d e08e 9a3d 0010 e53c
000001b0: 47f4 3d3d 29e5 aabd 69b1 99bd aafc 6c3d
000001c0: d1b5 8bbc ff24 a5bd 20a0 8ebd 490d 843d
000001d0: c01d ee3c a4a6 ebbc 14a6 62bd b6c3 953d
000001e0: 8bbf c3bc 1fb5 34bd 00d7 993d a6ba 9ebd
000001f0: a860 883d b944 9f3b c8b9 cd3b 3539 a93d
0.04707601 -0.047687944 0.07078989 0.08396841 -0.010234126 0.07892621 0.012676696 -0.0076304413
-0.02188237 -0.067172095 0.040567346 0.06430144 0.07615943 -0.046278995 0.058894537 0.07110313
-0.041605875 -0.08422506 0.019169964 -0.004979123 0.033880606 -0.016014852 -0.02666094 0.0035965245
-0.012876075 -0.022416571 -0.07078026 -0.021859067 0.018975459 0.03317044 -0.02359641 -0.025493272
0.04078283 0.024485325 -0.0028695348 -0.021152701 -0.021519782 -0.07401592 -0.05478372 -0.023033377
-0.02765527 -0.06545258 0.06447818 0.019889714 0.07535412 0.06274817 0.023115579 0.017710844
-0.054836486 0.03825117 0.08378979 -0.05040419 0.014345855 0.028100753 0.016875917 0.09004462
-0.0074930936 0.05561621 -0.033107433 -0.083819605 -0.07655112 0.07357018 0.04670479 0.03496207
0.013943689 0.05112905 -0.072610684 -0.000611583 0.008561036 0.05831478 -0.021960437 -0.0011678081
0.06422423 -0.036359448 -0.053563587 0.014365036 -0.085660875 0.06535931 0.019012768 0.06928519
-0.075601466 -0.0533826 -0.004334615 0.030658163 0.04922528 0.020836245 0.03113532 0.029072298
0.035038147 -0.069907 -0.0595571 -0.04639086 0.059758242 0.01895408 0.06576415 0.003501131
0.059883215 -0.08300066 -0.007315874 -0.035133008 -0.0077094883 0.0047963816 -0.055375453 0.034152955
0.014255621 0.061675087 0.075467825 0.027961731 0.04637554 -0.0834449 -0.075045414 0.057858147
-0.01705447 -0.08063697 -0.06964135 0.064478464 0.02906692 -0.028765984 -0.055334166 0.073127195
-0.023895046 -0.044118043 0.07511711 -0.07750444 0.06659061 0.0048604873 0.0062782504 0.082628645
